…
Total sequences in class 'hand_shaking': 238
Total sequences in class 'nothing': 1189
Total sequences in class 'moving_arms': 56
CLASSES_LIST: ['hand_shaking', 'nothing', 'moving_arms']
Label Mapping: {'hand_shaking': 0, 'nothing': 1, 'moving_arms': 2}
Total sequences in class 'hand_shaking': 20
Total sequences in class 'nothing': 865
Total sequences in class 'moving_arms': 58
Model: "sequential"
_________________________________________________________________
 Layer (type)                Output Shape              Param #   
=================================================================
 time_distributed (TimeDist  (None, 15, 64, 64, 16)    448       
 ributed)                                                        
                                                                 
 time_distributed_1 (TimeDi  (None, 15, 16, 16, 16)    0         
 stributed)                                                      
                                                                 
 time_distributed_2 (TimeDi  (None, 15, 16, 16, 16)    0         
 stributed)                                                      
                                                                 
 time_distributed_3 (TimeDi  (None, 15, 16, 16, 32)    4640      
 stributed)                                                      
                                                                 
 time_distributed_4 (TimeDi  (None, 15, 4, 4, 32)      0         
 stributed)                                                      
                                                                 
 time_distributed_5 (TimeDi  (None, 15, 4, 4, 32)      0         
 stributed)                                                      
                                                                 
 time_distributed_6 (TimeDi  (None, 15, 4, 4, 64)      18496     
 stributed)                                                      
                                                                 
 time_distributed_7 (TimeDi  (None, 15, 2, 2, 64)      0         
 stributed)                                                      
                                                                 
 time_distributed_8 (TimeDi  (None, 15, 2, 2, 64)      0         
 stributed)                                                      
                                                                 
 time_distributed_9 (TimeDi  (None, 15, 2, 2, 64)      36928     
 stributed)                                                      
                                                                 
 time_distributed_10 (TimeD  (None, 15, 1, 1, 64)      0         
 istributed)                                                     
                                                                 
 time_distributed_11 (TimeD  (None, 15, 1, 1, 64)      0         
 istributed)                                                     
                                                                 
 time_distributed_12 (TimeD  (None, 15, 64)            0         
 istributed)                                                     
                                                                 
 lstm (LSTM)                 (None, 32)                12416     
                                                                 
 dense (Dense)               (None, 3)                 99        
                                                                 
=================================================================
Total params: 73027 (285.26 KB)
Trainable params: 73027 (285.26 KB)
Non-trainable params: 0 (0.00 Byte)
_________________________________________________________________
Epoch 1/25
57/57 [==============================] - 10s 78ms/step - loss: 1.0910 - accuracy: 0.3867 - val_loss: 1.0007 - val_accuracy: 0.6490
…
Total sequences in class 'hand_shaking': 238
Total sequences in class 'nothing': 1189
Total sequences in class 'moving_arms': 56
CLASSES_LIST: ['hand_shaking', 'nothing', 'moving_arms']
Label Mapping: {'hand_shaking': 0, 'nothing': 1, 'moving_arms': 2}
Total sequences in class 'hand_shaking': 20
Total sequences in class 'nothing': 865
Total sequences in class 'moving_arms': 58
Model: "sequential_3"
_________________________________________________________________
 Layer (type)                Output Shape              Param #   
=================================================================
 time_distributed_39 (TimeD  (None, 15, 64, 64, 32)    896       
 istributed)                                                     
                                                                 
 time_distributed_40 (TimeD  (None, 15, 16, 16, 32)    0         
 istributed)                                                     
                                                                 
 time_distributed_41 (TimeD  (None, 15, 16, 16, 32)    0         
 istributed)                                                     
                                                                 
 time_distributed_42 (TimeD  (None, 15, 16, 16, 64)    18496     
 istributed)                                                     
                                                                 
 time_distributed_43 (TimeD  (None, 15, 4, 4, 64)      0         
 istributed)                                                     
                                                                 
 time_distributed_44 (TimeD  (None, 15, 4, 4, 64)      0         
 istributed)                                                     
                                                                 
 time_distributed_45 (TimeD  (None, 15, 4, 4, 128)     73856     
 istributed)                                                     
                                                                 
 time_distributed_46 (TimeD  (None, 15, 2, 2, 128)     0         
 istributed)                                                     
                                                                 
 time_distributed_47 (TimeD  (None, 15, 2, 2, 128)     0         
 istributed)                                                     
                                                                 
 time_distributed_48 (TimeD  (None, 15, 2, 2, 128)     147584    
 istributed)                                                     
                                                                 
 time_distributed_49 (TimeD  (None, 15, 1, 1, 128)     0         
 istributed)                                                     
                                                                 
 time_distributed_50 (TimeD  (None, 15, 1, 1, 128)     0         
 istributed)                                                     
                                                                 
 time_distributed_51 (TimeD  (None, 15, 128)           0         
 istributed)                                                     
                                                                 
 lstm_3 (LSTM)               (None, 32)                20608     
                                                                 
 dense_3 (Dense)             (None, 3)                 99        
                                                                 
=================================================================
Total params: 261539 (1021.64 KB)
Trainable params: 261539 (1021.64 KB)
Non-trainable params: 0 (0.00 Byte)
_________________________________________________________________
Epoch 1/25
57/57 [==============================] - 9s 88ms/step - loss: 1.0918 - accuracy: 0.3667 - val_loss: 1.1099 - val_accuracy: 0.0827
…
Total sequences in class 'hand_shaking': 238
Total sequences in class 'nothing': 1189
Total sequences in class 'moving_arms': 56
CLASSES_LIST: ['hand_shaking', 'nothing', 'moving_arms']
Label Mapping: {'hand_shaking': 0, 'nothing': 1, 'moving_arms': 2}
Total sequences in class 'hand_shaking': 20
Total sequences in class 'nothing': 865
Total sequences in class 'moving_arms': 58
Model: "sequential_6"
_________________________________________________________________
 Layer (type)                Output Shape              Param #   
=================================================================
 time_distributed_78 (TimeD  (None, 15, 64, 64, 32)    896       
 istributed)                                                     
                                                                 
 time_distributed_79 (TimeD  (None, 15, 16, 16, 32)    0         
 istributed)                                                     
                                                                 
 time_distributed_80 (TimeD  (None, 15, 16, 16, 32)    0         
 istributed)                                                     
                                                                 
 time_distributed_81 (TimeD  (None, 15, 16, 16, 64)    18496     
 istributed)                                                     
                                                                 
 time_distributed_82 (TimeD  (None, 15, 4, 4, 64)      0         
 istributed)                                                     
                                                                 
 time_distributed_83 (TimeD  (None, 15, 4, 4, 64)      0         
 istributed)                                                     
                                                                 
 time_distributed_84 (TimeD  (None, 15, 4, 4, 128)     73856     
 istributed)                                                     
                                                                 
 time_distributed_85 (TimeD  (None, 15, 2, 2, 128)     0         
 istributed)                                                     
                                                                 
 time_distributed_86 (TimeD  (None, 15, 2, 2, 128)     0         
 istributed)                                                     
                                                                 
 time_distributed_87 (TimeD  (None, 15, 2, 2, 128)     147584    
 istributed)                                                     
                                                                 
 time_distributed_88 (TimeD  (None, 15, 1, 1, 128)     0         
 istributed)                                                     
                                                                 
 time_distributed_89 (TimeD  (None, 15, 1, 1, 128)     0         
 istributed)                                                     
                                                                 
 time_distributed_90 (TimeD  (None, 15, 128)           0         
 istributed)                                                     
                                                                 
 lstm_6 (LSTM)               (None, 64)                49408     
                                                                 
 dense_6 (Dense)             (None, 3)                 195       
                                                                 
=================================================================
Total params: 290435 (1.11 MB)
Trainable params: 290435 (1.11 MB)
Non-trainable params: 0 (0.00 Byte)
_________________________________________________________________
Epoch 1/25
57/57 [==============================] - 7s 71ms/step - loss: 1.1056 - accuracy: 0.3589 - val_loss: 1.0687 - val_accuracy: 0.2195
…
Total sequences in class 'hand_shaking': 238
Total sequences in class 'nothing': 1189
Total sequences in class 'moving_arms': 56
CLASSES_LIST: ['hand_shaking', 'nothing', 'moving_arms']
Label Mapping: {'hand_shaking': 0, 'nothing': 1, 'moving_arms': 2}
Total sequences in class 'hand_shaking': 20
Total sequences in class 'nothing': 865
Total sequences in class 'moving_arms': 58
Model: "sequential_9"
_________________________________________________________________
 Layer (type)                Output Shape              Param #   
=================================================================
 time_distributed_117 (Time  (None, 15, 64, 64, 16)    448       
 Distributed)                                                    
                                                                 
 time_distributed_118 (Time  (None, 15, 16, 16, 16)    0         
 Distributed)                                                    
                                                                 
 time_distributed_119 (Time  (None, 15, 16, 16, 16)    0         
 Distributed)                                                    
                                                                 
 time_distributed_120 (Time  (None, 15, 16, 16, 32)    4640      
 Distributed)                                                    
                                                                 
 time_distributed_121 (Time  (None, 15, 4, 4, 32)      0         
 Distributed)                                                    
                                                                 
 time_distributed_122 (Time  (None, 15, 4, 4, 32)      0         
 Distributed)                                                    
                                                                 
 time_distributed_123 (Time  (None, 15, 4, 4, 64)      18496     
 Distributed)                                                    
                                                                 
 time_distributed_124 (Time  (None, 15, 2, 2, 64)      0         
 Distributed)                                                    
                                                                 
 time_distributed_125 (Time  (None, 15, 2, 2, 64)      0         
 Distributed)                                                    
                                                                 
 time_distributed_126 (Time  (None, 15, 2, 2, 64)      36928     
 Distributed)                                                    
                                                                 
 time_distributed_127 (Time  (None, 15, 1, 1, 64)      0         
 Distributed)                                                    
                                                                 
 time_distributed_128 (Time  (None, 15, 1, 1, 64)      0         
 Distributed)                                                    
                                                                 
 time_distributed_129 (Time  (None, 15, 64)            0         
 Distributed)                                                    
                                                                 
 lstm_9 (LSTM)               (None, 64)                33024     
                                                                 
 dense_9 (Dense)             (None, 3)                 195       
                                                                 
=================================================================
Total params: 93731 (366.14 KB)
Trainable params: 93731 (366.14 KB)
Non-trainable params: 0 (0.00 Byte)
_________________________________________________________________
Epoch 1/25
57/57 [==============================] - 7s 67ms/step - loss: 1.0943 - accuracy: 0.3844 - val_loss: 1.0406 - val_accuracy: 0.1220
…
